…
Training Shape: (26044, 2)
Validation Shape: (8682, 2)
   Temperature   Outflow
0     3.698335  4.182050
1     3.698335  4.155753
2     3.698335  4.147885
3     3.698335  4.144721
4     3.698335  4.144721
Training Shape: (25949, 72, 2) (25949, 24, 2)
Validation Shape: (8587, 72, 2) (8587, 24, 2)
Type of X: <class 'numpy.ndarray'>
Type of y: <class 'numpy.ndarray'>
Type of X: <class 'numpy.ndarray'>
Type of y: <class 'numpy.ndarray'>
Features shape: torch.Size([64, 72, 2])
Target shape: torch.Size([64, 24, 2])
Net(
  (TCN): TCN(
    (network): Sequential(
      (0): TemporalBlock(
        (conv1): Conv1d(72, 72, kernel_size=(2,), stride=(1,), padding=(1,))
        (chomp1): Chomp1d()
        (relu1): ReLU()
        (dropout1): Dropout(p=0.2, inplace=False)
        (filter_conv2): Conv1d(72, 72, kernel_size=(2,), stride=(1,), padding=(1,))
        (gate_conv2): Conv1d(72, 72, kernel_size=(2,), stride=(1,), padding=(1,))
        (chomp2): Chomp1d()
        (dropout2): Dropout(p=0.2, inplace=False)
        (relu): ReLU()
      )
      (1): TemporalBlock(
        (conv1): Conv1d(72, 48, kernel_size=(2,), stride=(1,), padding=(2,), dilation=(2,))
        (chomp1): Chomp1d()
        (relu1): ReLU()
        (dropout1): Dropout(p=0.2, inplace=False)
        (filter_conv2): Conv1d(48, 48, kernel_size=(2,), stride=(1,), padding=(2,), dilation=(2,))
        (gate_conv2): Conv1d(48, 48, kernel_size=(2,), stride=(1,), padding=(2,), dilation=(2,))
        (chomp2): Chomp1d()
        (dropout2): Dropout(p=0.2, inplace=False)
        (downsample): Conv1d(72, 48, kernel_size=(1,), stride=(1,))
        (relu): ReLU()
      )
      (2): TemporalBlock(
        (conv1): Conv1d(48, 24, kernel_size=(2,), stride=(1,), padding=(4,), dilation=(4,))
        (chomp1): Chomp1d()
        (relu1): ReLU()
        (dropout1): Dropout(p=0.2, inplace=False)
        (filter_conv2): Conv1d(24, 24, kernel_size=(2,), stride=(1,), padding=(4,), dilation=(4,))
        (gate_conv2): Conv1d(24, 24, kernel_size=(2,), stride=(1,), padding=(4,), dilation=(4,))
        (chomp2): Chomp1d()
        (dropout2): Dropout(p=0.2, inplace=False)
        (downsample): Conv1d(48, 24, kernel_size=(1,), stride=(1,))
        (relu): ReLU()
      )
    )
    (linear): Linear(in_features=24, out_features=24, bias=True)
  )
  (conv1): Conv1d(72, 64, kernel_size=(1,), stride=(1,))
  (relu): ReLU()
  (conv2): Conv1d(64, 24, kernel_size=(1,), stride=(1,))
  (mamba): Sequential(
    (0): Linear(in_features=2, out_features=16, bias=True)
    (1): Mamba(
      (layers): ModuleList(
        (0): ResidualBlock(
          (mixer): MambaBlock(
            (in_proj): Linear(in_features=16, out_features=64, bias=False)
            (conv1d): Conv1d(32, 32, kernel_size=(4,), stride=(1,), padding=(3,), groups=32)
            (x_proj): Linear(in_features=32, out_features=33, bias=False)
            (dt_proj): Linear(in_features=1, out_features=32, bias=True)
            (out_proj): Linear(in_features=32, out_features=16, bias=False)
          )
          (norm): RMSNorm()
        )
        (1): ResidualBlock(
          (mixer): MambaBlock(
            (in_proj): Linear(in_features=16, out_features=64, bias=False)
            (conv1d): Conv1d(32, 32, kernel_size=(4,), stride=(1,), padding=(3,), groups=32)
            (x_proj): Linear(in_features=32, out_features=33, bias=False)
            (dt_proj): Linear(in_features=1, out_features=32, bias=True)
            (out_proj): Linear(in_features=32, out_features=16, bias=False)
          )
          (norm): RMSNorm()
        )
      )
      (norm_f): RMSNorm()
    )
    (2): Tanh()
    (3): Linear(in_features=16, out_features=1, bias=True)
  )
)

Total parameters: 71049
Learnable parameters: 71049

Epoch [0/299]		Train loss: 2.834408 - Val loss: 0.107496

Epoch [1/299]		Train loss: 0.109148 - Val loss: 0.038893

Epoch [2/299]		Train loss: 0.037334 - Val loss: 0.029108

Epoch [3/299]		Train loss: 0.021824 - Val loss: 0.025090

Epoch [4/299]		Train loss: 0.016323 - Val loss: 0.025834
…
